AnyNet/results/finetune_anynet/checkpoint.tar (torch, 536587 bytes, 282 tensors)

module.feature_extraction.block0.0.0.weight f4 [1, 3, 3, 3]
0	0xbf30fed4	-0.69138837
1	0xbeb948ef	-0.36188456
2	0x3cdb179a	0.026744653
3	0xbe09f524	-0.1347242
4	0x3d0ded31	0.03465003
5	0x3cfa46a8	0.03055127
6	0x3f414a2f	0.7550382
7	0x3f282374	0.656791
8	0x3e337617	0.17525516
9	0x3fe20f44	1.7660909
10	0x3f963154	1.1733804
11	0x3ea80eb6	0.32823724
12	0x3e3febeb	0.1874234
13	0x3ecc1221	0.3985758
14	0x3f2a75b1	0.6658583
15	0x3e051baa	0.12998834
16	0x3ef60618	0.48051524
17	0x3eaa0f5e	0.3321485
18	0xbdabe333	-0.08392944
19	0x3dafff34	0.08593598
20	0x3dca483d	0.098770596
21	0x3e971bc2	0.29513365
22	0x3ee938b3	0.4555107
23	0x3e0f9530	0.14021754
24	0x3d4c5356	0.049884163
25	0xbe8da628	-0.2766583
26	0x3d5f4c93	0.054516386

module.feature_extraction.block0.0.1.2.weight f4 [1, 1, 3, 3]
0	0x3f12d962	0.5736295
1	0xbe80b995	-0.25141588
2	0x3f25639d	0.6460512
3	0x3f1cfe2c	0.61325336
4	0xbe947583	-0.28995904
5	0x3f0f95a3	0.560877
6	0x3f161052	0.5861865
7	0xbe40e9ce	-0.1883919
8	0x3eb3a8a3	0.35089597

module.feature_extraction.block0.1.1.2.weight f4 [2, 1, 3, 3]
0	0x3f94c6f0	1.1623211
1	0x3e02246c	0.12709206
2	0x3d7f9367	0.062396433
3	0xbe733615	-0.237511
4	0xbe4254c3	-0.18977647
5	0xbdbde564	-0.092722684
6	0xbf0c4dc7	-0.5480618
7	0xbebffad6	-0.3749606
8	0x3d13eb66	0.036113165
9	0xbd4308b9	-0.04761574
10	0x3ea38b3b	0.31942162
11	0xbe0cb89a	-0.13742295
12	0x3c56463d	0.01307827
13	0x3fbddc5d	1.4832875
14	0xbe6fbba0	-0.23411417
15	0xbdc97b80	-0.09838009
16	0xbe3b3af5	-0.18284209
17	0x3cdabb49	0.026700633

module.feature_extraction.block0.1.2.0.weight f4 [2]
0	0x3f37e7e9	0.7183824
1	0x3f0454a4	0.5169165

module.feature_extraction.block0.1.2.0.bias f4 [2]
0	0x3e0b00cb	0.13574521
1	0x3f7b37e9	0.9813219

module.feature_extraction.block0.1.2.0.running_mean f4 [2]
0	0xbd50208c	-0.05081229
1	0x3f62dd41	0.88618857

module.feature_extraction.block0.1.2.0.running_var f4 [2]
0	0x3d94f503	0.07273295
1	0x3e128f67	0.14312516

module.feature_extraction.block0.1.2.2.weight f4 [2, 2, 3, 3]
0	0x3e4e48d4	0.20144969
1	0xbd95ec4b	-0.0732046
2	0x3e759d16	0.23985705
3	0xbe5f3a33	-0.21799545
4	0xbe9dde2b	-0.30833563
5	0xbde82f1c	-0.113371104
6	0xbed765ca	-0.42069846
7	0xbf23be57	-0.6396231
8	0xbe6d08b4	-0.23147851
9	0x3deb549d	0.11490748
10	0xbe8c3792	-0.27386147
11	0xbeb82948	-0.35968995
12	0xbf8540de	-1.0410421
13	0xbfd62ec3	-1.673302
14	0xbee241a6	-0.4419071
15	0xbe28a6f6	-0.1646994
16	0xbe593dd1	-0.21214987
17	0x3c5fbfa0	0.013656527
18	0xbd0b7e04	-0.034055725
19	0x3d15b284	0.0365472
20	0xbdaa9c8e	-0.08330642
21	0x3df0e99a	0.11763306
22	0x3ebe63d5	0.3718554
23	0x3d364ccb	0.04450683
24	0x3e9c58ec	0.30536592
25	0x3f6a3c72	0.9149848
26	0x3ebf8247	0.3740408
27	0xbe439e5c	-0.19103378
28	0x3c26417a	0.010147447
29	0x3d828e34	0.06374779
30	0x3f84c7fa	1.0373528
31	0x3f336bd6	0.7008642
32	0x3d9aff7f	0.07568263
33	0xbf0c2760	-0.5474758
34	0xbe88e28b	-0.2673534
35	0x3a89e429	0.0010520268

module.feature_extraction.blocks.0.1.0.weight f4 [2]
0	0x3ebab15a	0.36463434
1	0x3f06d26a	0.52664816

module.feature_extraction.blocks.0.1.0.bias f4 [2]
0	0x3f8e8770	1.1135082
1	0x3f58835b	0.8457543

module.feature_extraction.blocks.0.1.0.running_mean f4 [2]
0	0xc07a74d6	-3.913381
1	0x3feb0790	1.8361683

module.feature_extraction.blocks.0.1.0.running_var f4 [2]
0	0x4082488b	4.0713553
1	0x3fc589dc	1.5432696

module.feature_extraction.blocks.0.1.2.weight f4 [4, 2, 3, 3]
0	0x3de73f9a	0.11291428
1	0x3e472615	0.19448121
2	0x3e1c59ed	0.15268679
3	0x3ea459a6	0.32099646
4	0x3e5e2434	0.21693498
5	0x3e4386a9	0.19094338
6	0xbe924ab7	-0.28572628
7	0x3f0ace1e	0.5422076
8	0xbe912aec	-0.2835306
9	0xbdf09b08	-0.1174832
10	0xbc7e1122	-0.0155070145
11	0xbda99334	-0.0828003
12	0x3eaab557	0.33341476
13	0x3ff0f83f	1.8825759
14	0x3da78597	0.08179777
15	0xbcc7e556	-0.024401348
16	0x3e51ff28	0.2050749
17	0x3e209f3e	0.15685746
18	0x3eabe1e4	0.33570778
19	0xbed0e408	-0.40798974
20	0xbd2be915	-0.04197033
21	0xbf981a48	-1.188302
22	0xc00300dd	-2.0469277
23	0x3d4d568c	0.050131366
24	0x3eb56713	0.35430202
25	0xbe3da29c	-0.18519062
26	0xbd30b86e	-0.043144636
27	0xbc0de82f	-0.008661314
28	0x3dd144b4	0.10218182
29	0xbd993211	-0.074802525
30	0x3d105a8b	0.0352426
31	0x3e4c42e2	0.19947389
32	0xbd5f27c1	-0.05448127
33	0x3cc11346	0.02356876
34	0xbcd9bfe0	-0.026580751
35	0xbd6e8451	-0.058231656
36	0x3ccc39aa	0.02492984
37	0xbe1d0da9	-0.15337242
38	0x3da6b42c	0.08139834
39	0x3ea01240	0.31263924
40	0x3e9c718c	0.3055538
41	0xbd6085e3	-0.054815184
42	0xbecb2f26	-0.3968441
43	0xbf2763c7	-0.65386623
44	0xbd4104a4	-0.047123566
45	0x3babca28	0.0052426048
46	0xbd651725	-0.055930275
47	0x3cba5f35	0.022750476
48	0xbe704548	-0.23463929
49	0xbfd15bfe	-1.6356199
50	0x3a592c9a	0.0008284539
51	0xbc5437b1	-0.012952731
52	0xbd8bb22e	-0.068210945
53	0x3d36ee2e	0.04466074
54	0xbd8ca5bf	-0.06867551
55	0xbdf488f8	-0.11940187
56	0x3e2512bf	0.16120432
57	0xbe4f3e02	-0.20238498
58	0xbf1b3010	-0.6062021
59	0xbf209371	-0.6272498
60	0x3e0e6e29	0.1390921
61	0x3f5df5a8	0.86702967
62	0x3eae7618	0.34074473
63	0xbc975ee3	-0.018477863
64	0xbd86305b	-0.06552192
65	0xbd7f301c	-0.06230174
66	0xbdbad915	-0.09123436
67	0x3f1a7dae	0.6034802
68	0x3ed5d1b5	0.41761556
69	0xbcf6904d	-0.030098105
70	0xbe5460ab	-0.20740001
71	0xbe91d4dd	-0.28482714

module.feature_extraction.blocks.0.2.0.weight f4 [4]
0	0x3edb5dd1	0.42845014
1	0x3f375835	0.7161897
2	0x3fb79038	1.4340887
3	0x3f12b810	0.5731211

module.feature_extraction.blocks.0.2.0.bias f4 [4]
0	0x3ebfeddc	0.3748616
1	0x3faee20a	1.3662732
2	0xbee397cb	-0.44451746
3	0x3e35d459	0.17756785

module.feature_extraction.blocks.0.2.0.running_mean f4 [4]
0	0x40550708	3.3285542
1	0xc059df1b	-3.4042423
2	0xc00f4d8a	-2.2391076
3	0x3d906a21	0.070514925

module.feature_extraction.blocks.0.2.0.running_var f4 [4]
0	0x3f87c77c	1.0607753
1	0x3fb25a88	1.3933878
2	0x3f81c19a	1.0137208
3	0x3eee409b	0.46533665

module.feature_extraction.blocks.0.2.2.weight f4 [4, 4, 3, 3]
0	0x3d92743f	0.071510784
1	0xbe98f695	-0.29875627
2	0x3eaba952	0.3352762
3	0xbe6badf0	-0.2301557
4	0xbee74b12	-0.45174462
5	0xbe25c695	-0.16189034
6	0x3daa3c37	0.08312266
7	0xbd31c387	-0.04339936
8	0x3df6235e	0.120184645
9	0x3e060048	0.13086045
10	0xbe9b09ba	-0.30280858
11	0xbed9d89b	-0.4254807
12	0xbd6633fa	-0.056201912
13	0x3f0b0232	0.54300225
14	0x3ee8ace5	0.45444408
15	0x3da65d5f	0.08123278
16	0x3e374999	0.17899169
17	0x3cccb725	0.024989674
18	0x3f45d7f3	0.7728264
19	0x3fa09f69	1.2548648
20	0x3f679c19	0.9047256
21	0xbd528341	-0.051394705
22	0xbe691dca	-0.2276527
23	0xbe2dcc69	-0.16972508
24	0xbcb2b848	-0.021816388
25	0x3ba09aaa	0.00490125
26	0x3b8d7bd0	0.004317738
27	0xbf92a346	-1.1456077
28	0xbfbbda72	-1.4676039
29	0xbed40a7f	-0.41414258
30	0x3e15f9b7	0.1464604
31	0xbdc5dcee	-0.096612796
32	0x3da26a05	0.07930378
33	0x3db66e8f	0.08907806
34	0xbcab143a	-0.020883668
35	0xbcb68d9d	-0.022284323
36	0xbeeee0cb	-0.46655878
37	0xbf3c4017	-0.73535293
38	0xbe9d3fba	-0.30712682
39	0x3cfda8d4	0.030964293
40	0xbec09aa9	-0.37617996
41	0xbe8bec69	-0.27328804
42	0xbc41d6f1	-0.011831031
43	0xbdca4ee0	-0.098783255
44	0xbe57fd56	-0.21092734
45	0x3dca722f	0.0988506
46	0x3d0cd227	0.034380104
47	0x3dabd003	0.083892845
48	0xbd69af80	-0.057052135
49	0xbfc6d8aa	-1.5534871
50	0xbe93227f	-0.28737256
51	0xbe75d0fc	-0.24005502
52	0xbfa15536	-1.2604129
53	0xbe6df39f	-0.23237465
54	0x3d8d1b58	0.06889981
55	0x3e7a90b3	0.24469261
56	0x3e17fa87	0.14841662
57	0x3e3fb4e0	0.18721342
58	0x3f2be2fd	0.6714323
59	0x3e43ebed	0.19132967
60	0xbd654088	-0.055969745
61	0xbd387700	-0.045035362
62	0xbd225004	-0.03962709
63	0xbdf96ea2	-0.12179305
64	0xbe2b9ab7	-0.16758238
65	0x3da920bc	0.08258197
66	0xbe9e38e2	-0.30902773
67	0xbe827408	-0.2547915
68	0x3d9a7867	0.07542496
69	0x3e52abfa	0.20573416
70	0x3d6c540c	0.05769734
71	0xbdb451b4	-0.08804646
72	0x3d88cf8b	0.06680211
73	0x3ecc41d2	0.39893967
74	0x3ea30a46	0.31843776
75	0xbec2588a	-0.37958175
76	0xbf53b2ea	-0.82694876
77	0xbe567d69	-0.20946278
78	0xbc673fc3	-0.014114323
79	0xbc1ec08f	-0.009689464
80	0x3d5693c0	0.052387
81	0xbdf7c7f1	-0.12098683
82	0x3edcde95	0.43138567
83	0xbe601791	-0.2188399
84	0x3ecd899e	0.40144056
85	0x3fcec6eb	1.6154455
86	0x3f1e50ed	0.6184223
87	0x3ebbf14c	0.36707532
88	0x3f0834de	0.5320567
89	0x3d68628a	0.0567346
90	0xbdeb0ab2	-0.11476649
91	0xbf1694ba	-0.5882069
92	0xbd03005b	-0.03198276
93	0xbefca0fa	-0.49341565
94	0xbf75fa37	-0.9608492
95	0xbf26244b	-0.6489913
96	0xbd17b77c	-0.03704022
97	0xbdebc430	-0.11512029
98	0xbd4420ba	-0.047882773
99	0xbd2b5476	-0.041828595
100	0xbe83a049	-0.25708225
101	0x3b9ee2e7	0.004848826
102	0x3e946146	0.28980464
103	0x3eb55e42	0.35423476
104	0x3d878493	0.066170834
105	0x3d64d4ad	0.055866886
106	0x3d3de15d	0.0463575
107	0xbcfc6c38	-0.030813321
108	0xbd685f4c	-0.056731507
109	0x3f495909	0.7865148
110	0xbe0b61f4	-0.13611585
111	0x3ea4cc97	0.3218734
112	0x3ed29381	0.41128162
113	0x3eaf3208	0.34217858
114	0xbcbf4ca1	-0.02335197
115	0xbcde2531	-0.027117344
116	0xbd6cdb55	-0.05782636
117	0xbe06d5f7	-0.13167559
118	0x3e894b01	0.26815036
119	0x3efece58	0.49766803
120	0x3d42dbc6	0.047572874
121	0xbf92911d	-1.1450535
122	0xbf3d8c03	-0.74041766
123	0xbde87926	-0.11351232
124	0xbeec3a2f	-0.4613814
125	0x3e4e9bd0	0.20176625
126	0xbef01f5c	-0.46898925
127	0xbfc86628	-1.5656176
128	0xbf17dc33	-0.5932037
129	0x3e1a8efd	0.15093608
130	0x3ec73475	0.3890721
131	0x3e054a54	0.13016635
132	0x3d2bbd6b	0.04192869
133	0xbc294ef4	-0.010333765
134	0x3c2f7f98	0.010711573
135	0x3ecd0a57	0.4004695
136	0x3f0cb689	0.54966027
137	0x3d1a767e	0.03771066
138	0xbe6ee207	-0.2332841
139	0xbe70433a	-0.23463145
140	0xbd8337d1	-0.064071305
141	0x3dc33081	0.09530736
142	0xbd45945e	-0.048237197
143	0xbcba75b6	-0.022761207

module.feature_extraction.blocks.1.1.0.weight f4 [4]
0	0x3ece7374	0.4032246
1	0x3eb89e77	0.360584
2	0x3f02d522	0.51106465
3	0x3f0adb62	0.54241

module.feature_extraction.blocks.1.1.0.bias f4 [4]
0	0x3f2ad344	0.66728616
1	0x3f889b8a	1.0672467
2	0x3f97cf36	1.1860111
3	0x3f8b5af6	1.0887134

module.feature_extraction.blocks.1.1.0.running_mean f4 [4]
0	0x3fcab456	1.5836284
1	0xc094140d	-4.6274476
2	0x409dbf01	4.929566
3	0xbf5f454d	-0.8721512

module.feature_extraction.blocks.1.1.0.running_var f4 [4]
0	0x40014939	2.0200942
1	0x40be2e19	5.943127
2	0x40e98de8	7.2985725
3	0x403c3f67	2.9413698

module.feature_extraction.blocks.1.1.2.weight f4 [8, 4, 3, 3]
0	0xbd7d7bf1	-0.061885778
1	0xbdd08855	-0.10182253
2	0xbcd6d6bc	-0.02622544
3	0xbd7eedd3	-0.062238526
4	0x3f6f8c2e	0.9357327
5	0xbcad6684	-0.021167047
6	0x3d48ee7a	0.049055554
7	0x3cbe6ba7	0.023244692
8	0x3c82c048	0.015960827
9	0x3cfeabfb	0.031087866
10	0x3ec0d6e2	0.37663943
11	0xbdb6fbd0	-0.08934748
12	0x3db66de5	0.089076795
13	0xbfdbbec7	-1.7167596
14	0x3df56131	0.119814284
15	0xbd201d98	-0.039090723
16	0xbe895138	-0.26819777
17	0x3d48a011	0.048980776
18	0xbe417dde	-0.18895671
19	0xbf32e516	-0.6988081
20	0xbd9412fe	-0.07230185
21	0xbe94e83b	-0.29083428
22	0x3fa5d094	1.2954278
23	0xbe6b7427	-0.22993527
24	0xbc43b2a5	-0.011944448
25	0x3d4540b1	0.048157398
26	0xbcd511e8	-0.026009515
27	0xbba71449	-0.0050988537
28	0x3e82c61d	0.25541773
29	0x3d9a3bee	0.07530962
30	0x3e0fb7d9	0.14034976
31	0xbf0a2d08	-0.5397496
32	0x3daf255a	0.08552046
33	0x3caa7c3f	0.020811198
34	0xbc911fbc	-0.017715327
35	0xbd6d8ffc	-0.057998642
36	0xbcdf6ec3	-0.027274495
37	0xbce6cd3e	-0.028174039
38	0x3a93fcb2	0.0011290519
39	0xbc0347ae	-0.008012695
40	0xbf54d2cb	-0.83134145
41	0x3cccb5d8	0.024989054
42	0xbccaa92e	-0.024738874
43	0xbcd97fe6	-0.026550245
44	0xbdec6172	-0.11542024
45	0x3ccb698e	0.024830606
46	0x3e833217	0.25624153
47	0x3cb63129	0.022240238
48	0xbdf31188	-0.11868578
49	0x3ea1c3b0	0.3159461
50	0x3dd1cd62	0.10244252
51	0xbdd6b46c	-0.104836315
52	0x3d97466e	0.0738648
53	0xbe8f3319	-0.27968672
54	0xbdf198a3	-0.11796691
55	0xbda86e66	-0.08224182
56	0xbe469ef8	-0.1939658
57	0x3e612292	0.21985844
58	0xbedffb25	-0.43746296
59	0x3de89146	0.11355834
60	0xbd2158c4	-0.039391294
61	0x3d61ef48	0.055159837
62	0x3e27ca21	0.163857
63	0x3c210ed4	0.009830195
64	0xbd58a6c2	-0.052893408
65	0xbd6aa41c	-0.057285413
66	0x3e0ed52e	0.13948509
67	0xc01b4a66	-2.426416
68	0x3e2691cd	0.16266556
69	0xbc70202b	-0.014656107
70	0xbead787d	-0.33880988
71	0x3dcac5de	0.099010214
72	0xbc164999	-0.0091728205
73	0xbdac8587	-0.08423906
74	0xbd854f96	-0.065093204
75	0x3e2606db	0.16213553
76	0xbec8a97d	-0.3919181
77	0xbd190a5c	-0.037363395
78	0xbd73b089	-0.05949453
79	0xbd8de065	-0.069275655
80	0x3d665ed8	0.056242794
81	0xbe559437	-0.2085732
82	0x3f0c3bbe	0.5477866
83	0x3e234367	0.1594368
84	0x3e9f981d	0.3117074
85	0xbff5f41b	-1.921512
86	0xbe7dfd94	-0.24803764
87	0xbcadc876	-0.021213751
88	0xbdb19599	-0.086711116
89	0x3d3e8d3a	0.046521403
90	0x3d1df8e7	0.03856745
91	0xbf11219b	-0.566919
92	0xbe8dbc1f	-0.27682588
93	0xbdd119e2	-0.10210015
94	0x3f87ab23	1.0599102
95	0x3e697888	0.22799885
96	0x3c0bb1af	0.00852625
97	0x3da77812	0.081771985
98	0xbd456758	-0.04819426
99	0xbd5f25a1	-0.054479245
100	0xbb6799c7	-0.0035339461
101	0x3c638360	0.013886303
102	0xbe286f87	-0.16448794
103	0x3fa1cad5	1.2640024
104	0x3e84bf60	0.25927258
105	0xbd894497	-0.067025356
106	0xbdc351ee	-0.09537111
107	0xbd52b60c	-0.051443145
108	0x3c28498e	0.010271443
109	0xbde9654e	-0.113962755
110	0xbd215e6a	-0.03939668
111	0xbe545443	-0.20735268
112	0xbfb5197b	-1.4148401
113	0xbe2f1315	-0.17097123
114	0xbc89c007	-0.016815199
115	0x3d895e6a	0.06707461
116	0xbd0a5e7a	-0.033781506
117	0x3eda0259	0.42579916
118	0xbecf8ec4	-0.4053861
119	0x3da99c85	0.08281807
120	0x3e4784bd	0.1948423
121	0xbe54ad5c	-0.20769256
122	0xbe6b9165	-0.23004682
123	0x3d507cc8	0.05090025
124	0xbbca04f9	-0.0061651436
125	0x3dcc31a0	0.09970403
126	0x3c533cbf	0.012892901
127	0x3eb16e02	0.34654242
128	0x3d3c1d53	0.045926403
129	0xbea7d37d	-0.3277854
130	0xbf88010a	-1.0625317
131	0xbd74dbe7	-0.059780028
132	0x3c8364e7	0.016039325
133	0xbd44fec2	-0.04809452
134	0x3d0000f0	0.031250894
135	0xbd46c2ea	-0.04852573
136	0xbed9143a	-0.42398244
137	0x3d0c20c6	0.034210943
138	0xbecb8728	-0.39751554
139	0xbf86f14d	-1.0542389
140	0xbe3121e7	-0.17298089
141	0x3d0ad0ab	0.033890408
142	0xbe9e8914	-0.30963957
143	0xbb6e78b3	-0.003638786
144	0x3d1937a4	0.03740658
145	0xbd6b4a1a	-0.057443716
146	0xbdd486ca	-0.103772715
147	0xbf1ef4e0	-0.620924
148	0xbff16487	-1.8858804
149	0x3e5114c5	0.20418079
150	0xbe2a0032	-0.16601637
151	0xbe142142	-0.14465812
152	0xbdafaf5e	-0.085783705
153	0xbdd813dc	-0.10550663
154	0xbecdf149	-0.40223148
155	0xbdc7f037	-0.09762614
156	0x3e87ba20	0.2650919
157	0xbe06e88f	-0.13174652
158	0x3ed8c65d	0.4233884
159	0x3df9e70e	0.12202273
160	0xbdced3e1	-0.100990064
161	0xbc6e7079	-0.014553183
162	0x3ec8a909	0.39191464
163	0x3e5d4186	0.21607026
164	0x3dd4e849	0.103958674
165	0xbd30db14	-0.04317768
166	0xbec59d55	-0.38596597
167	0xbdf0dcfe	-0.11760901
168	0xbe0a172b	-0.134854
169	0xbdf04702	-0.11732294
170	0xbdcdb3d2	-0.10044064
171	0xbdb43303	-0.08798792
172	0xbf1c0fd2	-0.6096164
173	0xbe998f6d	-0.29992238
174	0xbe933366	-0.2875015
175	0xbe9d581d	-0.30731288
176	0xbe78784a	-0.24264637
177	0xbc953d6d	-0.018217767
178	0xbdda196c	-0.1064938
179	0x3d96d9b9	0.07365746
180	0xbd37cdc3	-0.044873964
181	0xbdc837f9	-0.09776301
182	0xbce7a185	-0.02827526
183	0x3daa9cbd	0.08330677
184	0xbf911fd4	-1.1337838
185	0xbe6c5f42	-0.23083213
186	0x3caf5b93	0.02140597
187	0x3d4c0656	0.04981073
188	0xbcbbd2b1	-0.022927614
189	0x3d871b80	0.06597042
190	0xbef9675e	-0.48711675
191	0xbc15865e	-0.009126274
192	0xbe036e56	-0.12835059
193	0x3f51ac76	0.8190378
194	0x3e483b14	0.19553787
195	0x3dfd96a3	0.12382247
196	0xbdc33578	-0.09531683
197	0x3d0ada8d	0.033899833
198	0x3e61c62a	0.2204825
199	0x3e0735cd	0.13204117
200	0x3e92b8a4	0.28656495
201	0x3d0881b3	0.033326816
202	0xbfe09dc2	-1.7548144
203	0xbec4d41c	-0.38443077
204	0xbd5fdf84	-0.05465652
205	0xbf1ecb9c	-0.62029433
206	0xbd122881	-0.03568316
207	0x3d1e4d4e	0.038647942
208	0xbd1b4e71	-0.037916604
209	0xbd87033e	-0.06592415
210	0xbe34237c	-0.17591661
211	0xba8ce84c	-0.0010750382
212	0xbe288053	-0.16455202
213	0xbcecb35e	-0.028894123
214	0xbec86b29	-0.39144257
215	0xbdc397b7	-0.09550422
216	0xbd90dda9	-0.07073528
217	0xbe3bee32	-0.18352583
218	0x3c923cb0	0.017851204
219	0x3e56602e	0.20935127
220	0x3d38cfe5	0.04512014
221	0x3c85299d	0.016255194
222	0xbdadabf7	-0.08480065
223	0xbddfe314	-0.109319836
224	0xbd966554	-0.073435456
225	0xbdf50388	-0.11963564
226	0xbe5f01de	-0.21778056
227	0xbdfe22bb	-0.12408968
228	0x3df534e2	0.11972977
229	0x3f9541e9	1.1660739
230	0x3d5e7f69	0.054320727
231	0xbe0d5d21	-0.13805057
232	0x3e89b994	0.26899397
233	0xbdfb6204	-0.12274554
234	0xbe2c5566	-0.16829452
235	0xbf7777f3	-0.96667403
236	0xbda6f177	-0.081515245
237	0x3d9fa682	0.07795431
238	0xbf5b8b24	-0.85759187
239	0x3e3dfce3	0.185535
240	0x3e4669b7	0.19376265
241	0xbea28a51	-0.31746152
242	0x3dcb6d0c	0.099329084
243	0xbd47fc48	-0.04882458
244	0x3e115def	0.14195989
245	0x3be6d7a9	0.0070447517
246	0xbdecde66	-0.11565857
247	0x3ff6d94c	1.9285064
248	0xbe45711d	-0.1928143
249	0xbd68596a	-0.056725897
250	0xbdbe79df	-0.09300589
251	0xbd100ca3	-0.0351683
252	0xbdb09f75	-0.08624164
253	0x3e880c3c	0.26571834
254	0x3d8c62f0	0.06854808
255	0xbaeafc43	-0.0017927963

module.feature_extraction.blocks.1.2.0.weight f4 [8]
0	0x3f532467	0.8247742
1	0x3eff1116	0.49817723
2	0x3f217f00	0.6308441
3	0x3f5bb001	0.85815436
4	0x3edf01fd	0.43556204
5	0x3f5b5bfd	0.8568724
6	0x3f43ee66	0.7653564
7	0x3ef6a40e	0.4817204

module.feature_extraction.blocks.1.2.0.bias f4 [8]
0	0x3fb0f13b	1.3823618
1	0x3f38e9e1	0.7223187
2	0x3faf90ed	1.3716103
3	0xbf77c512	-0.9678508
4	0xbde951f6	-0.11392586
5	0xbf3209b7	-0.69546074
6	0x3f6a9c6a	0.9164492
7	0x3f4bca01	0.7960511

module.feature_extraction.blocks.1.2.0.running_mean f4 [8]
0	0xbf9e0a55	-1.2346903
1	0xc05b393d	-3.4253685
2	0xbdc692e3	-0.09695985
3	0xc0a24f47	-5.0721774
4	0xc0834a05	-4.1027856
5	0xc079a962	-3.9009633
6	0x3ee5a609	0.44853237
7	0x3fcaaec9	1.583459

module.feature_extraction.blocks.1.2.0.running_var f4 [8]
0	0x3f7e5783	0.9935228
1	0x3fc17d78	1.5116415
2	0x3f377fd4	0.71679425
3	0x3f903e3f	1.1268996
4	0x3fcebcea	1.6151402
5	0x4013ccab	2.309367
6	0x403ea14d	2.978595
7	0x3ed02672	0.4065433

module.feature_extraction.blocks.1.2.2.weight f4 [8, 8, 3, 3]
0	0xbd0c9e77	-0.03433081
1	0xbe66ad8f	-0.22527145
2	0xbd127d2c	-0.035763904
3	0x3dafa944	0.08577207
4	0x3f213a6e	0.6297978
5	0x3e0f0b4c	0.13969153
6	0x3df4f7f1	0.119613536
7	0x3d8db8eb	0.06920036
8	0xbafd5379	-0.0019327245
9	0xbe2a6c3d	-0.16642852
10	0x3e205607	0.15657817
11	0xbd8d3a3f	-0.06895875
12	0x3dd69ba9	0.104789086
13	0x3fe124e0	1.7589378
14	0x3ddf5a43	0.10905888
15	0x3da90df8	0.082546175
16	0x3db2070d	0.08692751
17	0x3d11521f	0.035478707
18	0xbd833afb	-0.06407734
19	0xbd0e3113	-0.03471477
20	0x3cff6f51	0.03118101
21	0xbece8ca9	-0.4034169
22	0xbfdc3e04	-1.7206426
23	0x3e8b15b5	0.27165
24	0xbc1b7434	-0.009488154
25	0x3d6f0bd2	0.058360882
26	0xbe2a2383	-0.16615109
27	0xbe7ea923	-0.24869208
28	0xbe8e33ee	-0.27773994
29	0xbdfc6442	-0.1232381
30	0x3e139560	0.14412451
31	0xbe7bd7bc	-0.24594015
32	0xbe6f3320	-0.23359346
33	0xbd88860e	-0.06666194
34	0xbddcda91	-0.10783876
35	0xbe5d942f	-0.21638559
36	0xbe0e70f9	-0.13910283
37	0xbe0f9866	-0.14022979
38	0xbe248a50	-0.16068387
39	0x3d04d862	0.03243292
40	0xbdc2ed89	-0.095179625
41	0xbdd51efb	-0.104063
42	0xbc24490d	-0.010027182
43	0xbdd519be	-0.104053006
44	0xbdaf1fa4	-0.08550957
45	0x3e826761	0.25469497
46	0x3e64469a	0.22292557
47	0x3e73d3cf	0.23811267
48	0xbe78da2a	-0.24301973
49	0xbf4ecd60	-0.8078213
50	0xbf1303d0	-0.5742769
51	0x3bc01854	0.005862275
52	0xbdb7d0ba	-0.08975358
53	0x3e2410b3	0.16021995
54	0xbe0dac75	-0.13835318
55	0x3de23ee7	0.11047154
56	0xbda0d324	-0.07852772
57	0x3e6538aa	0.22384897
58	0xbf6d3a4e	-0.9266709
59	0x3d7d3fde	0.061828487
60	0xbd9f4c93	-0.07778277
61	0x3bf5ca3c	0.007500915
62	0x3d32699c	0.04355775
63	0x3a0286c5	0.00049791887
64	0x3dbfdf0e	0.09368716
65	0xbda3f42b	-0.08005556
66	0x3ce12f3c	0.027488343
67	0x3ebf0153	0.37305698
68	0x3e03480e	0.12820455
69	0xbd34e8e4	-0.044167414
70	0xbd878e7f	-0.06618976
71	0x3d729f4b	0.059233945
72	0xbce8098b	-0.028324863
73	0x3c6adb1e	0.014334468
74	0xbd5f9cba	-0.054592825
75	0x3cde6c82	0.02715135
76	0xbfac47ac	-1.3459373
77	0xbe0f8ce3	-0.14018588
78	0xbd205956	-0.039147697
79	0x3c22b149	0.009929963
80	0x3d4bf7f8	0.04979703
81	0x3def0bbd	0.11672161
82	0xbe1a78de	-0.1508517
83	0xbaa84ac1	-0.0012839661
84	0xbd0ffb7f	-0.035151955
85	0x3dd5f151	0.10446418
86	0x3ae2c510	0.0017301161
87	0xbdae269e	-0.085034594
88	0x3de2cb30	0.11073911
89	0xbd46de10	-0.04855162
90	0xbda9b2d4	-0.08286062
91	0xbe41d283	-0.1892796
92	0xbd6fb625	-0.058523316
93	0x3cd7f5c4	0.026362307
94	0xbf370bfa	-0.7150265
95	0xbc2841a3	-0.010269555
96	0xbd0e2ef3	-0.034712743
97	0x3ac55a1a	0.001505676
98	0xbc943872	-0.018093321
99	0xbf62aab0	-0.885417
100	0xbf5a5e3a	-0.8530003
101	0xbefa6554	-0.48905432
102	0x3f34bd23	0.706011
103	0x3f648328	0.8926263
104	0x3f1c29d4	0.61001325
105	0x3e3d7a75	0.18503745
106	0x3def95eb	0.116985165
107	0xbd289ad2	-0.041163273
108	0xbe441f88	-0.19152653
109	0xbf0fa051	-0.56104
110	0xbea956cf	-0.33074042
111	0x3d397db4	0.045285895
112	0x3d4403d0	0.0478552
113	0xbad56003	-0.0016279224
114	0xbe4b6f29	-0.19866623
115	0xbbe3baa8	-0.0069497414
116	0x3ce04e51	0.027381094
117	0xbe0210ff	-0.12701796
118	0xbf4c3aba	-0.7977711
119	0xbeba99c5	-0.36445442
120	0x3dd12fdd	0.10214207
121	0x3f6cec6d	0.9254826
122	0x3e68575e	0.22689578
123	0xbe3bd76d	-0.18343897
124	0xbddcc1df	-0.107791655
125	0xbe15d96a	-0.14633718
126	0xbe1edec0	-0.1551466
127	0xbe7d6f05	-0.24749382
128	0xbba7ebb8	-0.0051245354
129	0x3e3da4be	0.18519875
130	0xbd003da0	-0.03130877
131	0x3e1c9aa2	0.15293363
132	0xbd1f70f6	-0.038926087
133	0xbe5b7adb	-0.21433584
134	0xbc99e731	-0.018786998
135	0xbdc85854	-0.09782472
136	0x3db5e4d3	0.088815354
137	0x3dd7b07b	0.10531708
138	0x3d0dfdde	0.034665935
139	0xbf87219f	-1.0557135
140	0xbd584e50	-0.05280906
141	0xbca0dc85	-0.019636402
142	0xbcdb0f7c	-0.026740782
143	0xbcb50809	-0.022098558
144	0x3d91a0f1	0.07110775
145	0x3e98252a	0.29715854
146	0x3e339970	0.17539
147	0xbdf95142	-0.12173702
148	0x401dd7f8	2.4663067
149	0x3c9fd5d3	0.019511139
150	0x3dc6e905	0.09712414
151	0xbebc965b	-0.36833462
152	0x3c4a8f00	0.012363195
153	0xbd123f30	-0.03570479
154	0xbe572d70	-0.21013427
155	0xbca584fe	-0.020205017
156	0x3d689a57	0.056787815
157	0x3c920696	0.017825406
158	0x3ca49eda	0.020095278
159	0x3d49100f	0.04908758
160	0xbdf14267	-0.11780243
161	0x3d958c1a	0.07302113
162	0x3aa346a6	0.0012456968
163	0x3dc0f2a1	0.09421278
164	0xbdb38034	-0.08764687
165	0xbdcc2881	-0.09968663
166	0x3f6ba5b2	0.92049706
167	0xbe52bc7e	-0.20579717
168	0x3cee7d5c	0.02911251
169	0xbcc23d11	-0.02371076
170	0x3e90b04f	0.28259513
171	0xbe61feeb	-0.220699
172	0xbd730585	-0.059331436
173	0x3e423c7f	0.1896839
174	0x3df3c3ff	0.11902618
175	0x3e8e5452	0.27798706
176	0x3dbe3be0	0.09288764
177	0xbdb1234b	-0.0864931
178	0x3e2f41d2	0.17114952
179	0xbe1784ba	-0.14796725
180	0xbe0544c7	-0.13014518
181	0xbee6ee05	-0.4510347
182	0xbe89e349	-0.26931217
183	0xbd2c6fbd	-0.04209875
184	0xbea940ca	-0.33057243
185	0xbe9cf758	-0.30657458
186	0xbe1053ff	-0.14094542
187	0xbe326dd4	-0.17424709
188	0xbe1a3bd7	-0.1506189
189	0x3cad5c7f	0.02116227
190	0x3e14ce38	0.14531791
191	0x3d93904e	0.07205258
192	0x3d8e5a8d	0.06950865
193	0xbeb8e375	-0.36111036
194	0x3e894fc5	0.26818672
195	0x3e617d2a	0.22020403
196	0xbdbfaa7a	-0.09358688
197	0x3e05c40b	0.13063066
198	0xbde030e5	-0.10946826
199	0xbf21cfd7	-0.63207763
200	0xbce01a3c	-0.02735626
201	0xbe2b0188	-0.16699803
202	0xbfeefe78	-1.8671408
203	0xbeacd10b	-0.33753237
204	0xbddd1b17	-0.107961826
205	0xbf04ea67	-0.5192017
206	0xbe0d0d86	-0.1377469
207	0x3d55cda8	0.052198082
208	0x3d08e97f	0.033425804
209	0x3d0854b4	0.033283904
210	0x3e0a7906	0.1352273
211	0xbec513fa	-0.38491803
212	0xbed3798f	-0.4130368
213	0xbdf32000	-0.11871338
214	0x3b9f2985	0.0048572444
215	0xbd614616	-0.05499848
216	0x3d499db0	0.04922265
217	0xbe540c12	-0.2070773
218	0x3ca8f7dc	0.020626001
219	0x3e8c5896	0.27411336
220	0x3f91f820	1.1403847
221	0x3d719521	0.05898011
222	0xbcf6d77a	-0.030132044
223	0x3da8b6a4	0.08237961
224	0x3d605c6e	0.054775648
225	0xbc13d2f5	-0.009022464
226	0x3d855318	0.065099895
227	0x3d994063	0.07482984
228	0xbcecfc08	-0.028928772
229	0xbf93bfd9	-1.1542922
230	0xbdc74a4f	-0.0973097
231	0x3e0feab8	0.14054382
232	0xbd50ac8b	-0.0509458
233	0x3dc5cee4	0.09658602
234	0x3cc555ea	0.024088819
235	0xbe968862	-0.29400927
236	0xbe0c293b	-0.13687603
237	0xbdf26997	-0.11836546
238	0xbf41524f	-0.7551622
239	0x3d813587	0.06309038
240	0xbb9a355b	-0.0047060675
241	0x3c1ca890	0.009561673
242	0xbd03739a	-0.032092668
243	0x3d8b27da	0.067947105
244	0x3cb22042	0.021743897
245	0x3e405e4f	0.18785976
246	0x3cc36544	0.023851998
247	0xbf54a859	-0.8306938
248	0xbe91bb05	-0.28462997
249	0x3e160713	0.14651136
250	0x3eb2ac67	0.34897158
251	0x3ea68b5a	0.32528192
252	0xbdefa390	-0.11701119
253	0xbe8b91d6	-0.27259701
254	0xbe3940ca	-0.18091121
255	0x3e735f4c	0.23766822

module.feature_extraction.upblocks.0.conv.0.0.weight f4 [12]
0	0x3ef9e22d	0.4880537
1	0x3f5e1e02	0.8676454
2	0x3f2558f1	0.6458884
3	0x3f2eaa09	0.68228203
4	0x3d05b3c4	0.03264214
5	0x3de36c7b	0.111046754
6	0x3e3224e5	0.17396887
7	0x3dbd4f22	0.09243609
8	0x3e32d175	0.17462714
9	0xbba20037	-0.0049438733
10	0x3caa39c2	0.020779494
11	0x3ec8f253	0.3924738

module.feature_extraction.upblocks.0.conv.0.0.bias f4 [12]
0	0x3ef1fc2f	0.47262713
1	0x4015f02f	2.3427846
2	0x3fa65596	1.2994869
3	0x4008ac7b	2.1355274
4	0xbdd84e62	-0.10561825
5	0xbe683bde	-0.22679088
6	0x3f502b7d	0.8131636
7	0x3e1cb13e	0.15301988
8	0xbe1f4028	-0.15551817
9	0x3e42af2b	0.19012134
10	0x3f323ef7	0.69627327
11	0xbd8006b0	-0.062512755

module.feature_extraction.upblocks.0.conv.0.0.running_mean f4 [12]
0	0x3ed76152	0.42066437
1	0xc0a9cc36	-5.306178
2	0x4086c136	4.2110853
3	0xbff19b4b	-1.8875517
4	0xbf3bb469	-0.7332216
5	0xc0990d65	-4.782885
6	0x3e8a9ccd	0.27072755
7	0x3f62bdf3	0.8857109
8	0xc032cc3c	-2.7937155
9	0xbe61ccd1	-0.22050788
10	0x3f290036	0.66015947
11	0x3fcdc8bb	1.6076883

module.feature_extraction.upblocks.0.conv.0.0.running_var f4 [12]
0	0x407df9bd	3.9683678
1	0x40ddeb22	6.9349527
2	0x40eb0c9c	7.345289
3	0x4053f34c	3.3117247
4	0x40273e21	2.613167
5	0x3fc9d922	1.5769389
6	0x4140e902	12.056887
7	0x4003586a	2.0522714
8	0x4014f2fd	2.3273308
9	0x3f7e2ec1	0.9929009
10	0x3fd90135	1.6953493
11	0x40a65b5f	5.1986537

module.feature_extraction.upblocks.0.conv.0.2.weight f4 [4, 12, 3, 3]
0	0xbe0faebe	-0.14031503
1	0x3e132ab4	0.14371759
2	0xbdf64a44	-0.12025884
3	0xbd586703	-0.052832615
4	0x3ea28140	0.31739235
5	0xbe96facf	-0.29488227
6	0x3dcb9d0e	0.09942065
7	0xbfb46107	-1.409211
8	0xbe70e1b0	-0.23523593
9	0x3d32a102	0.04361058
10	0xbd9f8178	-0.07788366
11	0x3df550df	0.119783156
12	0x3f17c706	0.5928806
13	0xbea5066f	-0.3223147
14	0xbef64cb5	-0.48105398
15	0xbe6d1382	-0.23151973
16	0x3efcddd8	0.49388003
17	0x3fb79605	1.4342657
18	0xbd913fb1	-0.07092226
19	0x3ee1d8e7	0.44110796
20	0x3d8f9e18	0.07012576
21	0x3dc67fe8	0.09692365
22	0x3f234397	0.6377501
23	0x3f1530da	0.58277667
24	0x3e786880	0.24258614
25	0xbf12b2e5	-0.5730422
26	0xbe46585f	-0.19369648
27	0x3d9e418e	0.07727347
28	0xbcb2173c	-0.021739595
29	0x3e6ac03f	0.22924899
30	0x3d1ff6dc	0.039053783
31	0xbedc13ff	-0.42984006
32	0xbeae64d8	-0.34061313
33	0xbefce2e9	-0.4939187
34	0xbbd51b0d	-0.006503469
35	0xbf8a4b14	-1.0804162
36	0x3de60232	0.112308875
37	0x3d92ca93	0.07167544
38	0x3bc85bf5	0.0061144778
39	0xbdadf3a0	-0.084937334
40	0x3d159b2d	0.03652494
41	0x3e4a9638	0.19783866
42	0xbea973d1	-0.33096173
43	0xbea3a4e2	-0.31961733
44	0x3ea3a507	0.31961843
45	0xbdfbd4cc	-0.12296447
46	0x3e26ac52	0.16276672
47	0xbe0b73d5	-0.13618405
48	0xbdd61cb3	-0.10454693
49	0x3e068760	0.13137579
50	0x3e7c2191	0.2462218
51	0x3e8842ce	0.26613468
52	0xbc8366fb	-0.016040316
53	0x3e8247b2	0.25445324
54	0x3e368317	0.17823444
55	0xbe3d70e7	-0.185001
56	0xbe2bec61	-0.1678939
57	0x3e0b02d0	0.13575292
58	0xbe1234c6	-0.14277944
59	0xbe3ab4c4	-0.18233019
60	0xbecf2170	-0.40455198
61	0xbf28e02d	-0.65967065
62	0xbef287ee	-0.4736933
63	0xbd893c7e	-0.06700991
64	0x3ea84fcb	0.32873377
65	0x3d5272b1	0.05137891
66	0xbddf323e	-0.10898255
67	0x3ccf24be	0.025286075
68	0xbee17bfc	-0.44039905
69	0xbf12a5f2	-0.5728446
70	0xbf2a6366	-0.6655792
71	0xbf1129dd	-0.56704503
72	0x3db1efaa	0.086882904
73	0x3c69f688	0.014279969
74	0x3ef81c08	0.48458886
75	0x3ea1d58c	0.31608236
76	0xbe86b25c	-0.26307952
77	0x3c341706	0.010991817
78	0x3d46e03a	0.048553683
79	0x3dc3e487	0.095650725
80	0xbe09e973	-0.1346796
81	0x3d67684b	0.056495946
82	0xbdd8b3fb	-0.105812036
83	0x3e1be187	0.1522275
84	0xbc64eea1	-0.013972909
85	0xbe99e2d7	-0.30055878
86	0xbe33bf91	-0.17553546
87	0x3d84f554	0.06492105
88	0xbf05a372	-0.5220252
89	0xbf31d9c3	-0.69472903
90	0xbc64365d	-0.013928977
91	0xbe99fe81	-0.30076984
92	0x3e0cb050	0.13739133
93	0xbe6f4fb0	-0.23370242
94	0x3f08585e	0.5325984
95	0xbf0a22c8	-0.5395932
96	0xbebaf9d0	-0.36518717
97	0xbf24d2c6	-0.64384115
98	0xbf08a9bb	-0.5338399
99	0x3e22308e	0.15838835
100	0x3e7dd8d8	0.2478975
101	0xbe2f8eaa	-0.17144266
102	0xbc9b12e4	-0.018929906
103	0x3e2fe7b5	0.17178233
104	0x3e13ea44	0.14444834
105	0x3e61d675	0.22054465
106	0x3ed736f7	0.42034122
107	0x3e7d0b28	0.24711287
108	0xbd86577f	-0.06559657
109	0xbdb0136f	-0.08597457
110	0xbd8bd5ed	-0.068279125
111	0x3ee738b0	0.45160437
112	0xbe89d9bb	-0.26923928
113	0x3ec74c6e	0.389255
114	0xbe79bdc6	-0.24388799
115	0xbd163dbb	-0.036679965
116	0xbd932119	-0.07184047
117	0xbd5f1fc0	-0.05447364
118	0xbe350cf5	-0.17680724
119	0xbc537f6f	-0.0129088005
120	0xbe87410f	-0.26416823
121	0x401f5359	2.4894621
122	0xbe93294e	-0.2874245
123	0xbd99c958	-0.075091064
124	0x3edcc702	0.4312058
125	0xbdb7a7e3	-0.08967569
126	0xbd351ccc	-0.044216916
127	0xbef6b2ea	-0.48183376
128	0xbe82842e	-0.2549147
129	0x3e50e1ce	0.20398638
130	0xbe84ec75	-0.25961652
131	0x3e823e3f	0.25438115
132	0x3e3ef64e	0.18648645
133	0xbe82df69	-0.25561073
134	0xbde0776c	-0.10960278
135	0x3b6554ed	0.0034993247
136	0xbdbedf38	-0.09319919
137	0x3d5e82e2	0.05432404
138	0xbdf306d3	-0.11866536
139	0x3fcfe54e	1.6241853
140	0xbe3bec06	-0.18351755
141	0x3e94e590	0.29081392
142	0xbf04b807	-0.51843303
143	0x3e8a7171	0.27039674
144	0xbd869a40	-0.065723896
145	0xbe3de36a	-0.18543783
146	0xbe44a97d	-0.1920528
147	0x3ea423d0	0.32058573
148	0xbe8c2df7	-0.27378818
149	0x3d94a97c	0.07258889
150	0xbe11488a	-0.14187828
151	0x3f34c363	0.70610636
152	0x3ea9c81d	0.33160487
153	0x3c165183	0.009174707
154	0x3d3cb130	0.046067417
155	0xbe604bc7	-0.21903907
156	0x3deac382	0.114630714
157	0x3e97ac33	0.29623565
158	0xbdfa24f9	-0.12214083
159	0xbe494ef0	-0.19659019
160	0x3e2518d2	0.1612275
161	0xbdb15a7e	-0.08659838
162	0x3f1c7624	0.6111777
163	0xbe8b3cc5	-0.271948
164	0x3df819ab	0.12114271
165	0x3eedcfce	0.46447605
166	0x3ee4eff1	0.4471431
167	0x3f475289	0.77860314
168	0xbd88c2af	-0.06677758
169	0xbeef1f4b	-0.46703562
170	0xbe46b643	-0.19405465
171	0xbbaa4ca3	-0.005197124
172	0x3a4475c1	0.00074943533
173	0xbe78949f	-0.24275444
174	0x3dee5690	0.11637604
175	0xbe9265d5	-0.28593317
176	0x3d861ef9	0.06548876
177	0x3d12e5fd	0.035863865
178	0xbd0f4d30	-0.03498572
179	0xbdbe66aa	-0.09296925
180	0xbe33b322	-0.17548802
181	0xbe9eb0ce	-0.30994266
182	0xbe28aac7	-0.16471396
183	0x3e35074a	0.17678562
184	0xbe40b0e3	-0.18817477
185	0x3e0acdb8	0.13555038
186	0x3e4e3d32	0.20140532
187	0x3e980b31	0.29696038
188	0x3e3d1f56	0.18468985
189	0xbde73f43	-0.11291363
190	0x3d985afc	0.07439229
191	0xbdc790a8	-0.09744388
192	0xba2caceb	-0.0006587046
193	0xbba6f455	-0.0050950446
194	0x3e2e2dd8	0.17009676
195	0xbde1c059	-0.110230155
196	0xbd8c8d3f	-0.06862878
197	0x3df85482	0.121254936
198	0xbe091390	-0.13386369
199	0xbf24c1f3	-0.64358443
200	0x39de4fef	0.00042402695
201	0x3e5e78ce	0.21725771
202	0x3ead67b0	0.3386817
203	0x3ed2a923	0.41144666
204	0xbf42ab73	-0.7604286
205	0xbeabd643	-0.33561906
206	0x3dcc551d	0.099771716
207	0xbe5ea1e6	-0.21741447
208	0x3ef34188	0.47510934
209	0xbe5a6ba3	-0.21330123
210	0x3e24c478	0.16090572
211	0x3e564b08	0.2092706
212	0x3ee7db8d	0.4528469
213	0xbd41ad3d	-0.047284354
214	0x3f58fe83	0.84763354
215	0x3ebaf9ab	0.36518607
216	0x3df58084	0.11987403
217	0xbddd1d53	-0.10796609
218	0x3d71a15a	0.058991767
219	0x3dc6b573	0.097025774
220	0xbf08e33f	-0.5347175
221	0x3dfa6597	0.12226408
222	0x3e16ca9a	0.14725724
223	0xbf829c4c	-1.0203948
224	0x3e33acc0	0.17546368
225	0x3d28ffb4	0.041259483
226	0x3e719c0e	0.23594686
227	0xbe2ab7b6	-0.16671643
228	0x3ebe08df	0.37116143
229	0xbf1ec516	-0.6201948
230	0x3e17263a	0.14760676
231	0xbecd7546	-0.40128535
232	0xbf71260a	-0.9419867
233	0x3e46d354	0.19416553
234	0x3dbd3eb2	0.09240474
235	0xbc969b68	-0.01838465
236	0xbcc207a4	-0.023685284
237	0xbf299c98	-0.6625457
238	0xbf48ae17	-0.7839064
239	0x3c920893	0.017826354
240	0x3ea69bca	0.32540733
241	0x3fc7290a	1.5559399
242	0xbe802a41	-0.25032237
243	0x3be97158	0.0071241073
244	0x3e1b2f82	0.15154842
245	0x3c491322	0.012272628
246	0x3e3b937a	0.18317977
247	0x3f045e06	0.5170597
248	0xbe41d8e6	-0.18930396
249	0xbea698ce	-0.32538456
250	0x3ffb3088	1.9624186
251	0xbf380626	-0.7188438
252	0xbd2fc04d	-0.042908
253	0x3eb1e58b	0.3474544
254	0xbde6982e	-0.11259495
255	0x3e278225	0.1635824

module.feature_extraction.upblocks.0.conv.1.0.weight f4 [4]
0	0x3ee91761	0.4552565
1	0x3f8e564f	1.1120089
2	0x3ef1e234	0.47242892
3	0x3f6d059d	0.9258669

module.feature_extraction.upblocks.0.conv.1.0.bias f4 [4]
0	0xbdc90875	-0.09816066
1	0xbf377a48	-0.7167096
2	0x3f85ab70	1.0442944
3	0x3f428a99	0.75992733

module.feature_extraction.upblocks.0.conv.1.0.running_mean f4 [4]
0	0xc0491a35	-3.1422246
1	0x40eab53b	7.334623
2	0x3f67370a	0.9031836
3	0xc0afaef8	-5.4901085

module.feature_extraction.upblocks.0.conv.1.0.running_var f4 [4]
0	0x3fadf4a6	1.3590286
1	0x4089d46d	4.307181
2	0x3f827fd6	1.0195262
3	0x40e0b3d2	7.0219507

module.feature_extraction.upblocks.0.conv.1.2.weight f4 [4, 4, 3, 3]
0	0x3df5fe13	0.120113514
1	0xbed647c7	-0.41851637
2	0x3e454116	0.1926311
3	0xbdc2f40f	-0.09519207
4	0x3e0a4875	0.13504203
5	0xbecde8b0	-0.4021659
6	0xbe6368f7	-0.2220801
7	0x3e1605c8	0.14650643
8	0xbe068cdb	-0.1313967
9	0xbe116d1c	-0.14201778
10	0xbe63dc81	-0.22252084
11	0x3de8faab	0.11375936
12	0x3e497283	0.19672589
13	0xbfcaaa41	-1.5833207
14	0x3fb640d2	1.4238532
15	0xbcd731aa	-0.026268799
16	0xbf13eec8	-0.57786226
17	0x3dd59e32	0.10430564
18	0xbcafc421	-0.021455826
19	0xbe4c3a18	-0.19944036
20	0x3ea1caa5	0.31599918
21	0x3dc16aed	0.094442226
22	0xbcefe7b2	-0.029285286
23	0xbf388d2e	-0.72090423
24	0xbd1582fe	-0.036501877
25	0x3c3d07b8	0.011537485
26	0x3dc371bf	0.0954318
27	0x3de15ba2	0.11003806
28	0xbda66669	-0.08125002
29	0x3d09d61d	0.03365146
30	0xbec75a62	-0.38936144
31	0x3fc968d9	1.5735122
32	0xbda117bb	-0.07865854
33	0xbdd6fd85	-0.10497574
34	0x3f03dc19	0.5150772
35	0xbe748e6b	-0.23882453
36	0x3d0b32ed	0.033984113
37	0x3dddeaf5	0.1083583
38	0xbd1819e1	-0.037134055
39	0xbdd1b2b9	-0.10239167
40	0x3ef9db2d	0.4880003
41	0x3cd93475	0.026514271
42	0x3e075330	0.13215327
43	0x3e921dd8	0.28538394
44	0xbc5b552c	-0.013387006
45	0xbda4870d	-0.080335714
46	0xbd998c53	-0.07497468
47	0xbcdeb418	-0.027185485
48	0xbe38a409	-0.18031324
49	0xbf39fa6c	-0.7264774
50	0x3e325e3f	0.17418765
51	0x3dfa66c2	0.12226631
52	0x3f09be01	0.5380555
53	0xbd710c78	-0.05884978
54	0x3e8dbccc	0.27683103
55	0xbe3b36d3	-0.18282633
56	0xbe2d63a6	-0.16932544
57	0xbf23c2ca	-0.639691
58	0x3fea8810	1.8322773
59	0x3e61449e	0.21998832
60	0xbd8434e3	-0.064554
61	0x3d0d1bec	0.034450457
62	0x3db4402d	0.08801303
63	0x3bd799f3	0.0065796315
64	0xbcf180c1	-0.02948034
65	0xbdc0066e	-0.09376226
66	0x3ead0fb1	0.33801034
67	0x3e1bdd6f	0.15221189
68	0x3ddf6779	0.10908408
69	0xbd9b0ac7	-0.07570415
70	0xbf71243f	-0.9419593
71	0x3df0e1c4	0.117618114
72	0x3e13a006	0.14416513
73	0xbe35bef2	-0.17748621
74	0xbddcaf00	-0.10775566
75	0xbf1d6b1a	-0.6149155
76	0xbc97ca01	-0.01852894
77	0x3eba4f8c	0.36388814
78	0xbef99e2d	-0.4875349
79	0x3e326529	0.17421402
80	0xbe8d230d	-0.27565804
81	0xbda8c587	-0.082408
82	0x3dd221d9	0.10260362
83	0x3d108678	0.03528449
84	0x3f17600a	0.5913092
85	0x3d9a81c3	0.07544281
86	0xbe57fded	-0.21092959
87	0x3d0961ab	0.03354041
88	0xbf63ed2f	-0.8903379
89	0x3decbe56	0.11559741
90	0x3c14380a	0.009046564
91	0x3e0ccd2c	0.13750142
92	0xbe4d0d0e	-0.20024511
93	0x3d072b37	0.033000197
94	0xbe174882	-0.14773753
95	0x3f1954c4	0.5989497
96	0xbda38a34	-0.079853445
97	0xbd252c35	-0.040325362
98	0xbe65f611	-0.22457148
99	0x3db7cc43	0.08974507
100	0x3aac22b7	0.0013132904
101	0xbd270a0a	-0.04078106
102	0xbe4ba479	-0.1988696
103	0xbea33801	-0.31878665
104	0x3e9d09e2	0.30671602
105	0xbe3d1dd0	-0.18468404
106	0x3eea92ad	0.4581503
107	0xbe850e04	-0.25987256
108	0x3e0bc190	0.13648057
109	0xbdd13549	-0.102152415
110	0xbeefff64	-0.46874535
111	0x3d63633a	0.05551455
112	0x3db8e12b	0.090273224
113	0x3ec95ae9	0.3932717
114	0x3e284a9f	0.16434716
115	0x3e0dbabd	0.13840766
116	0x3e09ab0e	0.13444158
117	0x3deaa7e8	0.11457807
118	0xbe2f3537	-0.17110144
119	0x3cf92273	0.030411934
120	0x3de7e12d	0.11322246
121	0xbf8ddd53	-1.1083168
122	0xbf88f2ba	-1.0699074
123	0xbc03b2ac	-0.008038204
124	0xbe842acf	-0.2581391
125	0x3c3aa0d6	0.011390885
126	0xbe2aaa48	-0.1666652
127	0xbd07cc97	-0.033154096
128	0x3cbe56ed	0.023234809
129	0x3eeccc1c	0.46249473
130	0xbf607d94	-0.87691617
131	0xbf232523	-0.6372854
132	0x3d61ce14	0.055128172
133	0xbde52c21	-0.111900575
134	0x3e59b1eb	0.21259277
135	0xbdb42b0a	-0.087972715
136	0x3e398de3	0.18120532
137	0xbe3c00d2	-0.18359688
138	0xbebcfece	-0.3691315
139	0xbed5a209	-0.41725186
140	0x3f98ec06	1.1947029
141	0x3e169dbf	0.14708613
142	0xbe861be6	-0.2619316
143	0xbed5f5ea	-0.4178918

module.feature_extraction.upblocks.1.conv.0.0.weight f4 [6]
0	0x3f263e86	0.64939153
1	0x3f755bd4	0.95843244
2	0xbc72b0b5	-0.014812638
3	0x3e1754a1	0.14778377
4	0x3d52baaa	0.051447548
5	0x3c6a26b5	0.014291455

module.feature_extraction.upblocks.1.conv.0.0.bias f4 [6]
0	0x3f95caea	1.170255
1	0x3fc9af07	1.5756539
2	0x3f7122af	0.9419355
3	0xbdeeb2c5	-0.11655191
4	0x3f1ab796	0.6043638
5	0x3fc838e7	1.5642365

module.feature_extraction.upblocks.1.conv.0.0.running_mean f4 [6]
0	0xc08c3962	-4.3820047
1	0x3fba446b	1.455213
2	0x3ee54128	0.44776273
3	0x3f969a60	1.1765862
4	0xbe132096	-0.143679
5	0xbfc697bf	-1.5515059

module.feature_extraction.upblocks.1.conv.0.0.running_var f4 [6]
0	0x409caa0a	4.8957567
1	0x3f8e4b96	1.1116817
2	0x3f974bb6	1.181998
3	0x3ecca5db	0.39970288
4	0x3dc4755d	0.09592698
5	0x3ec15496	0.37759846

module.feature_extraction.upblocks.1.conv.0.2.weight f4 [2, 6, 3, 3]
0	0xbe1b13b0	-0.15144229
1	0xbdcdab29	-0.10042412
2	0xbe0b1448	-0.13581955
3	0xbe3711b6	-0.1787785
4	0x3f9cbcae	1.224508
5	0x3fce3720	1.6110573
6	0xbf083120	-0.5319996
7	0x3f67235e	0.9028834
8	0x3f3ca2c6	0.7368587
9	0x3ddc9afd	0.10771749
10	0xbf0aafd3	-0.54174536
11	0x3e48fdd6	0.1962808
12	0xbee3aa28	-0.44465756
13	0x3f9b4551	1.2130529
14	0x3ea79ead	0.32738248
15	0x3e32900d	0.17437764
16	0xbea3c343	-0.3198491
17	0x3e889af8	0.26680732
18	0x3cd28e6b	0.025702676
19	0x3e5b7362	0.21430734
20	0x3eb9a458	0.36258197
21	0x3ee3e415	0.4450995
22	0xbd8fd2e6	-0.070226476
23	0xbd5f2580	-0.054479122
24	0xbeb2f077	-0.34949085
25	0xbf427d12	-0.7597209
26	0xbf34833b	-0.7051274
27	0x3cda3cc9	0.026640313
28	0x3ea731ea	0.3265527
29	0xbe9d9df8	-0.30784583
30	0x3de056f4	0.10954085
31	0xbe90b380	-0.28261948
32	0xbd9cb40a	-0.07651527
33	0x3c8f3abf	0.017484067
34	0xbdf709cf	-0.12062418
35	0x3eb1ba6e	0.34712547
36	0x3e19c59d	0.1501679
37	0xbe3505ec	-0.1767804
38	0xbef42aad	-0.4768881
39	0x3d9b5904	0.07585338
40	0x3eed8280	0.46388626
41	0xbea5a0df	-0.32349297
42	0x3e0579cd	0.13034745
43	0x3eea79bd	0.45796004
44	0xbf8638fa	-1.0486138
45	0x3de115b5	0.109904684
46	0xbb09bbf4	-0.002101657
47	0xbe887f46	-0.26659602
48	0xbde60f53	-0.112333916
49	0x3eb52693	0.35380992
50	0x3e7947b7	0.24343763
51	0x3e87b9bd	0.26508895
52	0xbef3e2f3	-0.47634086
53	0xbde874e0	-0.11350417
54	0x3d2b3c19	0.04180536
55	0xbe49976f	-0.19686674
56	0xbe9a1406	-0.30093402
57	0x3f82fb74	1.0232987
58	0xbcd3bd11	-0.02584699
59	0xbdc13431	-0.09433783
60	0xbe32308a	-0.17401329
61	0xbe689f2e	-0.22716972
62	0x3e9d8777	0.30767414
63	0xbe2b1fe9	-0.16711392
64	0x3f05db10	0.5228739
65	0xbec506b3	-0.38481674
66	0x3f84df69	1.0380679
67	0xc018caa7	-2.387369
68	0x3f8afe68	1.0858889
69	0x3e5f0417	0.21778904
70	0xbe8fd9f4	-0.28095973
71	0xbd6b612d	-0.05746572
72	0xbe3437b8	-0.1759938
73	0x3ea1609e	0.31519026
74	0xbe0b832f	-0.13624261
75	0x3f22389a	0.6336762
76	0x3e86418a	0.26221877
77	0x3e4a6311	0.19764353
78	0xbd1dbd6e	-0.038510732
79	0xbe58ce33	-0.21172409
80	0xbebca2cf	-0.36842963
81	0xbe34e3b3	-0.17664985
82	0xbe223317	-0.15839802
83	0x3c8934db	0.016748836
84	0x3d91a66e	0.07111822
85	0x3ef9c2d1	0.48781446
86	0xbeaa205b	-0.3322781
87	0xbe337b6e	-0.17527553
88	0x3ec78713	0.3897024
89	0x3dabe7df	0.08393835
90	0x3c95264d	0.01820674
91	0xbe5d80d1	-0.21631171
92	0x3e1d1417	0.15339695
93	0x3dcad415	0.09903733
94	0xbdfd0709	-0.123548575
95	0x3e39841b	0.181168
96	0x3e3e02dd	0.1855578
97	0xbecae133	-0.39624938
98	0xbdf7237d	-0.12067316
99	0xbf297182	-0.66188824
100	0x3eb49b97	0.35274956
101	0xbdecd685	-0.11564354
102	0x3f52e478	0.82379866
103	0x3fce4032	1.6113341
104	0x3e843ab1	0.25826028
105	0xbf9c7a38	-1.2224798
106	0xbf9382b4	-1.1524262
107	0xbe92c0a4	-0.28662598

module.feature_extraction.upblocks.1.conv.1.0.weight f4 [2]
0	0x3e93020c	0.287125
1	0x3f2fc6ef	0.68662924

module.feature_extraction.upblocks.1.conv.1.0.bias f4 [2]
0	0x3fb88f1b	1.4418672
1	0x3f2b3ca9	0.66889435

module.feature_extraction.upblocks.1.conv.1.0.running_mean f4 [2]
0	0x408907dc	4.2822094
1	0xbedf6af0	-0.43636274

module.feature_extraction.upblocks.1.conv.1.0.running_var f4 [2]
0	0x4018347a	2.378203
1	0x3f7a02a7	0.976603

module.feature_extraction.upblocks.1.conv.1.2.weight f4 [2, 2, 3, 3]
0	0xbe222a9f	-0.15836571
1	0xbe2e35c6	-0.170127
2	0x3f2d463f	0.6768531
3	0x3d04f2a4	0.032457963
4	0xbf9b716f	-1.2143992
5	0xbf34bd96	-0.70601785
6	0xbd3290bf	-0.043595072
7	0x3e50e414	0.20399505
8	0x3eaa33b9	0.33242586
9	0x3d57e836	0.052711688
10	0xbdfe3dc7	-0.12414127
11	0x3e25364e	0.16133997
12	0xbe3084fa	-0.17238227
13	0xbe85e927	-0.26154444
14	0x3fc0d6f8	1.5065603
15	0x3d90eea7	0.07076769
16	0x3de05dda	0.10955401
17	0x3d442f12	0.047896452
18	0x3c469504	0.012120489
19	0x3edab31d	0.42714778
20	0xbd10ff7e	-0.035399906
21	0x3e3819d6	0.17978606
22	0x3fae4caf	1.3617152
23	0xbefb43ea	-0.49075252
24	0xbd88d017	-0.06680315
25	0x3e608469	0.2192551
26	0x3e1950be	0.14972207
27	0x3e7e32cf	0.2482407
28	0x3da8d647	0.08243995
29	0xbe3517d8	-0.17684877
30	0xbea5017f	-0.32227704
31	0xbda99fac	-0.08282408
32	0x3ed355fa	0.41276532
33	0xbd50b461	-0.050953273
34	0xbe9d3e01	-0.30711368
35	0x3e89d42f	0.26919696

module.volume_postprocess.0.0.2.weight f4 [16, 1, 3, 3, 3]
0	0xbec31834	-0.38104403
1	0x3cb5d5f2	0.022196744
2	0xbec23231	-0.37928918
3	0xbda5f06d	-0.08102498
4	0x3dfc7108	0.123262465
5	0xbf29568a	-0.66147673
6	0xbe8457da	-0.25848275
7	0x3e07b499	0.13252486
8	0xbe7635a1	-0.24043895
9	0x3df1a3b6	0.117988035
10	0x3f0eb383	0.55742663
11	0x3df5ea5f	0.12007593
12	0x3f1bcc6d	0.60858804
13	0xba94de51	-0.0011357759
14	0xbe46d809	-0.19418348
15	0x3d44ac62	0.04801596
16	0x3e80cfc8	0.25158525
17	0x3e0a44c7	0.13502799
18	0xbd598faa	-0.053115524
19	0x3ebf7e07	0.3740084
20	0xbe1eff23	-0.15527014
21	0x3d179339	0.037005637
22	0xbea26cd8	-0.31723666
23	0xbf0d974f	-0.55309004
24	0xbd867917	-0.06566065
25	0x3e09a76d	0.13442774
26	0x3db58a8e	0.08864318
27	0x3e6847a4	0.22683579
28	0x3da188e1	0.07887436
29	0x3d25c6ef	0.04047292
30	0xbdaf5dc4	-0.08562806
31	0xbe6ee564	-0.23329693
32	0x3e9ce486	0.306431
33	0xbe149c7d	-0.1451282
34	0xbe8c1d83	-0.27366266
35	0x3d4160e0	0.047211528
36	0x3e8b3025	0.2718517
37	0x3e4f5f0e	0.20251104
38	0xbe3d29e6	-0.18473014
39	0x3dd10b4c	0.10207233
40	0x3e5e3dd2	0.2170327
41	0x3d3f00ff	0.04663181
42	0x3c97d8ad	0.018535936
43	0x3e8c3c95	0.2738997
44	0xbd418e70	-0.04725498
45	0xbea0fcb2	-0.3144279
46	0x3e0c876f	0.13723539
47	0xbf019b9d	-0.5062807
48	0xbd3f61ea	-0.046724238
49	0x3e8b7210	0.2723546
50	0xbefd86e1	-0.49516967
51	0xbd2ba37d	-0.04190396
52	0x3e90d9de	0.2829122
53	0xbe3bb9be	-0.18332574
54	0x3d01e4d7	0.03171238
55	0xbe1f9dac	-0.15587491
56	0xbca2f2d5	-0.019891182
57	0x3d7746b5	0.060370166
58	0x3e164e6e	0.14678356
59	0x3d31bc4f	0.043392476
60	0xbe7b1861	-0.24521019
61	0x3eb7e5c2	0.3591748
62	0x3cff854b	0.031191489
63	0x3e07008f	0.13183807
64	0xbe750ac3	-0.23929887
65	0xbe984695	-0.2974135
66	0xbe18bb68	-0.1491524
67	0xbf2b22b7	-0.66849846
68	0xbf4a4422	-0.7901021
69	0x3e17a2af	0.14808153
70	0xbee1f4fc	-0.4413222
71	0x3ce7d4ce	0.028299715
72	0xbe391c3b	-0.18077175
73	0x3e920445	0.28518882
74	0x3e91b354	0.2845713
75	0x3d8050c9	0.062654085
76	0x3ed33037	0.41247723
77	0x3f25b4f7	0.64729255
78	0x3d9ea74b	0.07746752
79	0x3de5c126	0.11218481
80	0xbd8c380b	-0.06846627
81	0x3ebdfab8	0.37105346
82	0x3e3bdacd	0.18345185
83	0x3ee18fdb	0.44055066
84	0x3ee5396d	0.44770375
85	0x3dc30a02	0.09523393
86	0xbd52ec5d	-0.051494945
87	0x3db81df5	0.08990089
88	0xbe3bec37	-0.18351828
89	0x3d185612	0.037191458
90	0xbda62481	-0.08112431
91	0xbe9cf226	-0.30653495
92	0x3ea41bf9	0.3205259
93	0x3e3dab5d	0.18522401
94	0xbed6b153	-0.41932163
95	0xbd8a6d2f	-0.06759106
96	0xbe71fa5b	-0.2363066
97	0xbeb76c10	-0.35824633
98	0x3d57c41e	0.052677266
99	0x3ed5358d	0.41642419
100	0x3ddf104f	0.108917825
101	0x3f20ea19	0.62857205
102	0x3f001144	0.50026345
103	0x3db051b3	0.08609333
104	0x3e164cc7	0.14677726
105	0x3e8ad8b5	0.2711846
106	0xbea7f99d	-0.32807627
107	0xbddc014f	-0.10742437
108	0x3e281bd0	0.1641686
109	0x3e97e3d9	0.2966602
110	0x3d0842b7	0.03326675
111	0x3f065b79	0.52483326
112	0x3f1eb4a9	0.61994416
113	0x3ca8b0f4	0.02059219
114	0x3dcf2406	0.10114293
115	0x3e1afbe4	0.15135151
116	0x3d2ff807	0.042961147
117	0xbdf93b98	-0.1216957
118	0xbe23a7b9	-0.1598195
119	0xbea85618	-0.32878184
120	0xbd9ddc79	-0.077080674
121	0xbe9ed62a	-0.3102277
122	0xbf24e801	-0.6441651
123	0xbe57496a	-0.21024099
124	0xbe631d69	-0.22179188
125	0xbe2d6e12	-0.1693652
126	0x3ccd649a	0.025072385
127	0x3e65d096	0.2244285
128	0xbe153078	-0.1456927
129	0xbcb1d197	-0.021706386
130	0x3dd6631b	0.104681216
131	0xbf21af68	-0.63158274
132	0x3d99fcac	0.075188965
133	0x3dd17e99	0.10229225
134	0x3d8e9dfa	0.069637254
135	0xbe2cc0f7	-0.16870485
136	0xbe847c3e	-0.2587604
137	0x3c6bcc64	0.014391992
138	0x3ef61fac	0.4807104
139	0x3e7e37a5	0.24825914
140	0xbc8ea176	-0.017410975
141	0x3eefe503	0.4685441
142	0x3ee16419	0.4402168
143	0x3e84dd96	0.25950307
144	0x3d63616e	0.055512838
145	0x3eaf6974	0.34260142
146	0xbe27d84e	-0.16391107
147	0xbeb26f98	-0.34850764
148	0xbbfe4bc7	-0.007760498
149	0xbf1e0ece	-0.6174134
150	0xbed1b28b	-0.4095653
151	0x3d0e2c78	0.034710377
152	0xbef8db16	-0.4860465
153	0x3e0bee6d	0.13665171
154	0xbe21a00d	-0.15783711
155	0x3e4396ee	0.19100544
156	0xbe05f839	-0.1308297
157	0xbe5d0ba9	-0.21586479
158	0x3ef02ce7	0.46909258
159	0xbd01cf0f	-0.031691607
160	0xbee91bcb	-0.45529017
161	0x3e096092	0.13415745
162	0xbda4374e	-0.08018361
163	0x3e854148	0.26026368
164	0x3bbd5c9b	0.0057788617
165	0x3e42f5b9	0.19039048
166	0x3e117bb1	0.14207341
167	0x3e6073c6	0.21919164
168	0xbe756dcb	-0.23967664
169	0x3cff50d1	0.031166466
170	0xbd2656e6	-0.040610217
171	0x3e44c180	0.1921444
172	0xbf0fb8f6	-0.56141603
173	0xbebee5d7	-0.3728473
174	0x3e926797	0.28594658
175	0xbf2ebfbd	-0.6826132
176	0xbf4b3c67	-0.7938904
177	0x3e32e66e	0.17470714
178	0xbd73942e	-0.059467487
179	0x3ddc3135	0.10751573
180	0xbd59aa68	-0.053141028
181	0xbbf36461	-0.0074277376
182	0xbeb23a32	-0.34810024
183	0x3e10b613	0.14131956
184	0xbdf61f8a	-0.12017734
185	0xbf4754d5	-0.7786382
186	0xbe184b04	-0.14872366
187	0x3dcef0ed	0.10104547
188	0xbde51adf	-0.11186766
189	0x3e71ef73	0.23626499
190	0x3f0a55cf	0.54037184
191	0x3e0f1af4	0.13975126
192	0x3e85524b	0.26039347
193	0x3f9eda52	1.2410376
194	0xbe23396a	-0.1593987
195	0x3cf41ef2	0.029799912
196	0x3eae3529	0.34024933
197	0xbd0ee663	-0.034887683
198	0xbe2143bd	-0.15748496
199	0xbd23839e	-0.03992044
200	0xbd3b1f70	-0.045684278
201	0xbf192d6a	-0.5983492
202	0x3e948dae	0.29014343
203	0x3e327d27	0.17430554
204	0xbe55a1e1	-0.20862533
205	0xbdee51af	-0.11636674
206	0xbe38cb0b	-0.18046205
207	0xbbca73fa	-0.0061783763
208	0xbe1444fe	-0.14479443
209	0xbd287509	-0.04112724
210	0xbe871fb1	-0.26391366
211	0xbea3fe99	-0.3203018
212	0x3e3db16c	0.18524712
213	0x3d790c8e	0.06080299
214	0x3da062cd	0.07831345
215	0x3da3b97c	0.07994363
216	0xbdadabec	-0.08480057
217	0xbda682fa	-0.081304505
218	0x3e218886	0.15774736
219	0xbe33570e	-0.17513677
220	0xbf28fa50	-0.66006947
221	0xbc2c4b54	-0.0105160065
222	0x3e80da8d	0.2516674
223	0xbee2caf7	-0.44295475
224	0x3d1fbec8	0.039000303
225	0xbe9653ae	-0.29360718
226	0xbdb52ad2	-0.08846058
227	0xbece43d5	-0.40286127
228	0xbcffdad7	-0.03123228
229	0x3e115c0c	0.1419527
230	0xbecc0646	-0.39848536
231	0x3e54a8f5	0.20767577
232	0x3e61a8fb	0.22037117
233	0xbd647cc3	-0.055783045
234	0x3ca3d0c0	0.019997
235	0xbd953ac5	-0.072866
236	0x3e634e7f	0.22197913
237	0x3ce1d2d2	0.027566347
238	0x3e08820f	0.13330863
239	0x3ec71cf8	0.3888929
240	0x3e2fcda0	0.17168283
241	0x3d93e9d9	0.07222337
242	0x3f002ab1	0.5006514
243	0x3e8f1362	0.27944475
244	0x3e02346c	0.1271531
245	0xbdcee434	-0.1010212
246	0x3e4ea4f3	0.2018011
247	0x3e6c9bf8	0.23106372
248	0x3dd1486a	0.1021889
249	0x3d80ff42	0.062986866
250	0xbdaa9d5a	-0.08330794
251	0xbe031f01	-0.12804796
252	0xbe2f9453	-0.17146425
253	0xbec126b0	-0.3772483
254	0x3cb0eb11	0.021596463
255	0xbf0b33e4	-0.54376054

module.volume_postprocess.0.1.0.weight f4 [16]
0	0x3f57eee1	0.84348875
1	0x3ec9b257	0.39393875
2	0x3f6d76f5	0.9275964
3	0x3f06089f	0.52356905
4	0x3f9b7e54	1.2147927
5	0x3f810037	1.007819
6	0x3f9b2b72	1.2122633
7	0x3f1cc155	0.612325
8	0x3f1d1c79	0.6137157
9	0x3fa18584	1.2618871
10	0x3f96cf09	1.1781932
11	0x3f5f14eb	0.87141293
12	0x3f05cde7	0.5226731
13	0x3f43349b	0.76252145
14	0x3f1668c9	0.5875364
15	0x3f994432	1.1973937

module.volume_postprocess.0.1.0.bias f4 [16]
0	0xbf219eb9	-0.63132817
1	0xbe098389	-0.13429083
2	0xbe13165f	-0.14364003
3	0xbf127ec8	-0.572247
4	0xbeeebf20	-0.46630192
5	0xbe9c4ea3	-0.30528745
6	0xbf64f47d	-0.8943556
7	0x3e04001d	0.12890668
8	0xbeac99f4	-0.33711207
9	0xbf4ce188	-0.80031633
10	0xbf54ef6e	-0.8317784
11	0xbf2f2ee5	-0.6843093
12	0xbe385825	-0.18002374
13	0xbf2aa397	-0.6665587
14	0xbeedfe22	-0.4648295
15	0xbe94909b	-0.29016575

module.volume_postprocess.0.1.0.running_mean f4 [16]
0	0xbe305ab8	-0.17222106
1	0x3d174951	0.036935154
2	0xbe7ae129	-0.24499954
3	0x3f79e3fa	0.9761349
4	0xbea24a17	-0.3169715
5	0xbe2e8839	-0.17044152
6	0xbf9e91ec	-1.2388282
7	0x3f0b6a1e	0.54458797
8	0xbe0965b6	-0.13417706
9	0xbf212968	-0.62953806
10	0xbf913c0c	-1.134645
11	0xbfaee452	-1.3663428
12	0xbe9dd673	-0.30827674
13	0xbf5cdeb8	-0.8627734
14	0xbf27149c	-0.6526582
15	0xbe84b63c	-0.25920284

module.volume_postprocess.0.1.0.running_var f4 [16]
0	0x3e525bd6	0.20542845
1	0x3db1b673	0.086773776
2	0x3e5a9835	0.21347125
3	0x3f27f3b9	0.65606266
4	0x3e28da39	0.16489495
5	0x3dc9c81f	0.09852623
6	0x3f350cf5	0.70722896
7	0x3ee68430	0.45022726
8	0x3e871b44	0.2638799
9	0x3e80c0af	0.25147006
10	0x3f5bb7a1	0.8582707
11	0x3f5e037f	0.86724085
12	0x3ed124a8	0.4084828
13	0x3f16c4df	0.5889415
14	0x3eaaae5c	0.3333615
15	0x3e814e6c	0.25255144
